[2025-06-07 00:17:05,750][base_learner.py][line: 333][    INFO] [RANK0]: DI-engine DRL Policy
SMACACE(
  (_action_encoder): Sequential(
    (0): Linear(in_features=1024, out_features=256, bias=True)
    (1): ReLU(inplace=True)
    (2): Linear(in_features=256, out_features=512, bias=True)
    (3): ReLU(inplace=True)
  )
  (_state_encoder): Sequential(
    (0): Linear(in_features=33, out_features=256, bias=True)
    (1): ReLU(inplace=True)
    (2): Linear(in_features=256, out_features=256, bias=True)
    (3): ReLU(inplace=True)
  )
  (_relation_encoder): Sequential(
    (0): Linear(in_features=262, out_features=256, bias=True)
    (1): ReLU(inplace=True)
    (2): Linear(in_features=256, out_features=512, bias=True)
    (3): ReLU(inplace=True)
  )
  (_relation_aggregator): RelationAggregator(
    (_state_encoder): Sequential(
      (0): Linear(in_features=768, out_features=256, bias=True)
      (1): ReLU(inplace=True)
    )
  )
  (_decision_encoder): DecisionEncoder(
    (_decision_encoder): Sequential(
      (0): Linear(in_features=256, out_features=256, bias=True)
      (1): ReLU(inplace=True)
      (2): Linear(in_features=256, out_features=512, bias=True)
      (3): ReLU(inplace=True)
    )
    (_logit_encoder): Sequential(
      (0): Linear(in_features=512, out_features=256, bias=True)
      (1): ReLU(inplace=True)
      (2): Linear(in_features=256, out_features=1, bias=True)
    )
  )
  (_local_predictor): Sequential(
    (0): Linear(in_features=256, out_features=128, bias=True)
    (1): ReLU(inplace=True)
    (2): Linear(in_features=128, out_features=6, bias=True)
  )
  (_global_predictor): Sequential(
    (0): Linear(in_features=512, out_features=256, bias=True)
    (1): ReLU(inplace=True)
    (2): Linear(in_features=256, out_features=12, bias=True)
  )
)
[2025-06-07 00:18:21,530][base_learner.py][line: 333][    INFO] [RANK0]: DI-engine DRL Policy
SMACACE(
  (_action_encoder): Sequential(
    (0): Linear(in_features=1024, out_features=256, bias=True)
    (1): ReLU(inplace=True)
    (2): Linear(in_features=256, out_features=512, bias=True)
    (3): ReLU(inplace=True)
  )
  (_state_encoder): Sequential(
    (0): Linear(in_features=33, out_features=256, bias=True)
    (1): ReLU(inplace=True)
    (2): Linear(in_features=256, out_features=256, bias=True)
    (3): ReLU(inplace=True)
  )
  (_relation_encoder): Sequential(
    (0): Linear(in_features=262, out_features=256, bias=True)
    (1): ReLU(inplace=True)
    (2): Linear(in_features=256, out_features=512, bias=True)
    (3): ReLU(inplace=True)
  )
  (_relation_aggregator): RelationAggregator(
    (_state_encoder): Sequential(
      (0): Linear(in_features=768, out_features=256, bias=True)
      (1): ReLU(inplace=True)
    )
  )
  (_decision_encoder): DecisionEncoder(
    (_decision_encoder): Sequential(
      (0): Linear(in_features=256, out_features=256, bias=True)
      (1): ReLU(inplace=True)
      (2): Linear(in_features=256, out_features=512, bias=True)
      (3): ReLU(inplace=True)
    )
    (_logit_encoder): Sequential(
      (0): Linear(in_features=512, out_features=256, bias=True)
      (1): ReLU(inplace=True)
      (2): Linear(in_features=256, out_features=1, bias=True)
    )
  )
  (_local_predictor): Sequential(
    (0): Linear(in_features=256, out_features=128, bias=True)
    (1): ReLU(inplace=True)
    (2): Linear(in_features=128, out_features=6, bias=True)
  )
  (_global_predictor): Sequential(
    (0): Linear(in_features=512, out_features=256, bias=True)
    (1): ReLU(inplace=True)
    (2): Linear(in_features=256, out_features=12, bias=True)
  )
)
[2025-06-07 01:17:50,689][base_learner.py][line: 333][    INFO] [RANK0]: DI-engine DRL Policy
SMACACE(
  (_action_encoder): Sequential(
    (0): Linear(in_features=1024, out_features=256, bias=True)
    (1): ReLU(inplace=True)
    (2): Linear(in_features=256, out_features=512, bias=True)
    (3): ReLU(inplace=True)
  )
  (_state_encoder): Sequential(
    (0): Linear(in_features=33, out_features=256, bias=True)
    (1): ReLU(inplace=True)
    (2): Linear(in_features=256, out_features=256, bias=True)
    (3): ReLU(inplace=True)
  )
  (_relation_encoder): Sequential(
    (0): Linear(in_features=262, out_features=256, bias=True)
    (1): ReLU(inplace=True)
    (2): Linear(in_features=256, out_features=512, bias=True)
    (3): ReLU(inplace=True)
  )
  (_relation_aggregator): RelationAggregator(
    (_state_encoder): Sequential(
      (0): Linear(in_features=768, out_features=256, bias=True)
      (1): ReLU(inplace=True)
    )
  )
  (_decision_encoder): DecisionEncoder(
    (_decision_encoder): Sequential(
      (0): Linear(in_features=256, out_features=256, bias=True)
      (1): ReLU(inplace=True)
      (2): Linear(in_features=256, out_features=512, bias=True)
      (3): ReLU(inplace=True)
    )
    (_logit_encoder): Sequential(
      (0): Linear(in_features=512, out_features=256, bias=True)
      (1): ReLU(inplace=True)
      (2): Linear(in_features=256, out_features=1, bias=True)
    )
  )
  (_local_predictor): Sequential(
    (0): Linear(in_features=256, out_features=128, bias=True)
    (1): ReLU(inplace=True)
    (2): Linear(in_features=128, out_features=6, bias=True)
  )
  (_global_predictor): Sequential(
    (0): Linear(in_features=512, out_features=256, bias=True)
    (1): ReLU(inplace=True)
    (2): Linear(in_features=256, out_features=12, bias=True)
  )
)
[2025-06-07 01:18:24,455][base_learner.py][line: 333][    INFO] [RANK0]: === Training Iteration 0 Result ===
[2025-06-07 01:18:24,456][learner_hook.py][line: 224][    INFO] 
+-------+----------+----------+-------------+--------------+----------+---------------+---------------------+
| Name  | lr_avg   | loss_avg | rl_loss_avg | aux_loss_avg | q_avg    | grad_norm_avg | aux_loss_weight_avg |
+-------+----------+----------+-------------+--------------+----------+---------------+---------------------+
| Value | 0.000300 | 1.973151 | 0.019348    | 0.195380     | 0.059392 | 2.329385      | 10.000000           |
+-------+----------+----------+-------------+--------------+----------+---------------+---------------------+
[2025-06-07 01:18:24,486][base_learner.py][line: 333][    INFO] [RANK0]: learner save ckpt in ./seed0/ckpt/iteration_0.pth.tar
[2025-06-07 01:19:41,560][base_learner.py][line: 333][    INFO] [RANK0]: DI-engine DRL Policy
SMACACE(
  (_action_encoder): Sequential(
    (0): Linear(in_features=1024, out_features=256, bias=True)
    (1): ReLU(inplace=True)
    (2): Linear(in_features=256, out_features=512, bias=True)
    (3): ReLU(inplace=True)
  )
  (_state_encoder): Sequential(
    (0): Linear(in_features=33, out_features=256, bias=True)
    (1): ReLU(inplace=True)
    (2): Linear(in_features=256, out_features=256, bias=True)
    (3): ReLU(inplace=True)
  )
  (_relation_encoder): Sequential(
    (0): Linear(in_features=262, out_features=256, bias=True)
    (1): ReLU(inplace=True)
    (2): Linear(in_features=256, out_features=512, bias=True)
    (3): ReLU(inplace=True)
  )
  (_relation_aggregator): RelationAggregator(
    (_state_encoder): Sequential(
      (0): Linear(in_features=768, out_features=256, bias=True)
      (1): ReLU(inplace=True)
    )
  )
  (_decision_encoder): DecisionEncoder(
    (_decision_encoder): Sequential(
      (0): Linear(in_features=256, out_features=256, bias=True)
      (1): ReLU(inplace=True)
      (2): Linear(in_features=256, out_features=512, bias=True)
      (3): ReLU(inplace=True)
    )
    (_logit_encoder): Sequential(
      (0): Linear(in_features=512, out_features=256, bias=True)
      (1): ReLU(inplace=True)
      (2): Linear(in_features=256, out_features=1, bias=True)
    )
  )
  (_local_predictor): Sequential(
    (0): Linear(in_features=256, out_features=128, bias=True)
    (1): ReLU(inplace=True)
    (2): Linear(in_features=128, out_features=6, bias=True)
  )
  (_global_predictor): Sequential(
    (0): Linear(in_features=512, out_features=256, bias=True)
    (1): ReLU(inplace=True)
    (2): Linear(in_features=256, out_features=12, bias=True)
  )
)
[2025-06-07 01:20:15,162][base_learner.py][line: 333][    INFO] [RANK0]: === Training Iteration 0 Result ===
[2025-06-07 01:20:15,164][learner_hook.py][line: 224][    INFO] 
+-------+----------+----------+-------------+--------------+----------+---------------+---------------------+
| Name  | lr_avg   | loss_avg | rl_loss_avg | aux_loss_avg | q_avg    | grad_norm_avg | aux_loss_weight_avg |
…
