[2025-06-07 01:20:41,426][base_learner.py][line: 333][    INFO] [RANK0]: DI-engine DRL Policy
SMACACE(
  (_action_encoder): Sequential(
    (0): Linear(in_features=1024, out_features=256, bias=True)
    (1): ReLU(inplace=True)
    (2): Linear(in_features=256, out_features=512, bias=True)
    (3): ReLU(inplace=True)
  )
  (_state_encoder): Sequential(
    (0): Linear(in_features=34, out_features=256, bias=True)
    (1): ReLU(inplace=True)
    (2): Linear(in_features=256, out_features=256, bias=True)
    (3): ReLU(inplace=True)
  )
  (_relation_encoder): Sequential(
    (0): Linear(in_features=262, out_features=256, bias=True)
    (1): ReLU(inplace=True)
    (2): Linear(in_features=256, out_features=512, bias=True)
    (3): ReLU(inplace=True)
  )
  (_relation_aggregator): RelationAggregator(
    (_state_encoder): Sequential(
      (0): Linear(in_features=768, out_features=256, bias=True)
      (1): ReLU(inplace=True)
    )
  )
  (_decision_encoder): DecisionEncoder(
    (_decision_encoder): Sequential(
      (0): Linear(in_features=256, out_features=256, bias=True)
      (1): ReLU(inplace=True)
      (2): Linear(in_features=256, out_features=512, bias=True)
      (3): ReLU(inplace=True)
    )
    (_logit_encoder): Sequential(
      (0): Linear(in_features=512, out_features=256, bias=True)
      (1): ReLU(inplace=True)
      (2): Linear(in_features=256, out_features=1, bias=True)
    )
  )
  (_local_predictor): Sequential(
    (0): Linear(in_features=256, out_features=128, bias=True)
    (1): ReLU(inplace=True)
    (2): Linear(in_features=128, out_features=6, bias=True)
  )
  (_global_predictor): Sequential(
    (0): Linear(in_features=512, out_features=256, bias=True)
    (1): ReLU(inplace=True)
    (2): Linear(in_features=256, out_features=12, bias=True)
  )
)
[2025-06-07 01:21:25,902][base_learner.py][line: 333][    INFO] [RANK0]: === Training Iteration 0 Result ===
[2025-06-07 01:21:25,902][learner_hook.py][line: 224][    INFO] 
+-------+----------+----------+-------------+--------------+-----------+---------------+---------------------+
| Name  | lr_avg   | loss_avg | rl_loss_avg | aux_loss_avg | q_avg     | grad_norm_avg | aux_loss_weight_avg |
…
